…
   "source": [
    "## Bonus: Relocate each events\n",
    "\n",
    "In your workflow, you might be ok with the approximate locations of the template matching catalog. However, if you decide to keep refining the catalog, here are some suggestions to get started.\n",
    "\n",
    "One possibility to start refining the locations of all events is to re-run the same process as in notebook 6, namely `PhaseNet` and `NonLinLoc`."
   ]
  },
  {
   "cell_type": "code",
   "execution_count": 30,
   "metadata": {},
   "outputs": [
    {
     "data": {
      "text/plain": [
       "PhaseNet(\n",
       "  (inc): Conv1d(3, 8, kernel_size=(7,), stride=(1,), padding=same)\n",
       "  (in_bn): BatchNorm1d(8, eps=0.001, momentum=0.1, affine=True, track_running_stats=True)\n",
       "  (down_branch): ModuleList(\n",
       "    (0): ModuleList(\n",
       "      (0): Conv1d(8, 8, kernel_size=(7,), stride=(1,), padding=same, bias=False)\n",
       "      (1): BatchNorm1d(8, eps=0.001, momentum=0.1, affine=True, track_running_stats=True)\n",
       "      (2): Conv1d(8, 8, kernel_size=(7,), stride=(4,), padding=(3,), bias=False)\n",
       "      (3): BatchNorm1d(8, eps=0.001, momentum=0.1, affine=True, track_running_stats=True)\n",
       "    )\n",
       "    (1): ModuleList(\n",
       "      (0): Conv1d(8, 16, kernel_size=(7,), stride=(1,), padding=same, bias=False)\n",
       "      (1): BatchNorm1d(16, eps=0.001, momentum=0.1, affine=True, track_running_stats=True)\n",
       "      (2): Conv1d(16, 16, kernel_size=(7,), stride=(4,), bias=False)\n",
       "      (3): BatchNorm1d(16, eps=0.001, momentum=0.1, affine=True, track_running_stats=True)\n",
       "    )\n",
       "    (2): ModuleList(\n",
       "      (0): Conv1d(16, 32, kernel_size=(7,), stride=(1,), padding=same, bias=False)\n",
       "      (1): BatchNorm1d(32, eps=0.001, momentum=0.1, affine=True, track_running_stats=True)\n",
       "      (2): Conv1d(32, 32, kernel_size=(7,), stride=(4,), bias=False)\n",
       "      (3): BatchNorm1d(32, eps=0.001, momentum=0.1, affine=True, track_running_stats=True)\n",
       "    )\n",
       "    (3): ModuleList(\n",
       "      (0): Conv1d(32, 64, kernel_size=(7,), stride=(1,), padding=same, bias=False)\n",
       "      (1): BatchNorm1d(64, eps=0.001, momentum=0.1, affine=True, track_running_stats=True)\n",
       "      (2): Conv1d(64, 64, kernel_size=(7,), stride=(4,), bias=False)\n",
       "      (3): BatchNorm1d(64, eps=0.001, momentum=0.1, affine=True, track_running_stats=True)\n",
       "    )\n",
       "    (4): ModuleList(\n",
       "      (0): Conv1d(64, 128, kernel_size=(7,), stride=(1,), padding=same, bias=False)\n",
       "      (1): BatchNorm1d(128, eps=0.001, momentum=0.1, affine=True, track_running_stats=True)\n",
       "      (2): None\n",
       "      (3): None\n",
       "    )\n",
       "  )\n",
       "  (up_branch): ModuleList(\n",
       "    (0): ModuleList(\n",
       "      (0): ConvTranspose1d(128, 64, kernel_size=(7,), stride=(4,), bias=False)\n",
       "      (1): BatchNorm1d(64, eps=0.001, momentum=0.1, affine=True, track_running_stats=True)\n",
       "      (2): Conv1d(128, 64, kernel_size=(7,), stride=(1,), padding=same, bias=False)\n",
       "      (3): BatchNorm1d(64, eps=0.001, momentum=0.1, affine=True, track_running_stats=True)\n",
       "    )\n",
       "    (1): ModuleList(\n",
       "      (0): ConvTranspose1d(64, 32, kernel_size=(7,), stride=(4,), bias=False)\n",
       "      (1): BatchNorm1d(32, eps=0.001, momentum=0.1, affine=True, track_running_stats=True)\n",
       "      (2): Conv1d(64, 32, kernel_size=(7,), stride=(1,), padding=same, bias=False)\n",
       "      (3): BatchNorm1d(32, eps=0.001, momentum=0.1, affine=True, track_running_stats=True)\n",
       "    )\n",
       "    (2): ModuleList(\n",
       "      (0): ConvTranspose1d(32, 16, kernel_size=(7,), stride=(4,), bias=False)\n",
       "      (1): BatchNorm1d(16, eps=0.001, momentum=0.1, affine=True, track_running_stats=True)\n",
       "      (2): Conv1d(32, 16, kernel_size=(7,), stride=(1,), padding=same, bias=False)\n",
       "      (3): BatchNorm1d(16, eps=0.001, momentum=0.1, affine=True, track_running_stats=True)\n",
       "    )\n",
       "    (3): ModuleList(\n",
       "      (0): ConvTranspose1d(16, 8, kernel_size=(7,), stride=(4,), bias=False)\n",
       "      (1): BatchNorm1d(8, eps=0.001, momentum=0.1, affine=True, track_running_stats=True)\n",
       "      (2): Conv1d(16, 8, kernel_size=(7,), stride=(1,), padding=same, bias=False)\n",
       "      (3): BatchNorm1d(8, eps=0.001, momentum=0.1, affine=True, track_running_stats=True)\n",
       "    )\n",
       "  )\n",
       "  (out): Conv1d(8, 3, kernel_size=(1,), stride=(1,), padding=same)\n",
       "  (softmax): Softmax(dim=1)\n",
       ")"
      ]
     },
     "execution_count": 30,
     "metadata": {},
     "output_type": "execute_result"
    }
   ],
   "source": [
    "import seisbench.models as sbm\n",
    "\n",
    "ml_detector = sbm.PhaseNet.from_pretrained(\"original\")\n",
    "ml_detector.eval()"
   ]
  },
  {
   "cell_type": "code",
…
